…
v2D(64, kernel_size=(3, 3), activation=\"relu\"),\n","        layers.MaxPooling2D(pool_size=(2, 2)),\n","        layers.Flatten(),\n","        layers.Dropout(0.5),\n","        layers.Dense(num_classes, activation=\"softmax\"),\n","    ]\n",")\n","\n","model.summary()"],"execution_count":24,"outputs":[{"output_type":"stream","text":["Model: \"sequential\"\n","_________________________________________________________________\n","Layer (type)                 Output Shape              Param #   \n","=================================================================\n","conv2d (Conv2D)              (None, 26, 26, 32)        320       \n","_________________________________________________________________\n","max_pooling2d (MaxPooling2D) (None, 13, 13, 32)        0         \n","_________________________________________________________________\n","conv2d_1 (Conv2D)            (None, 11, 11, 64)        18496     \n","_________________________________________________________________\n","max_pooling2d_1 (MaxPooling2 (None, 5, 5, 64)          0         \n","_________________________________________________________________\n","flatten (Flatten)            (None, 1600)              0         \n","_________________________________________________________________\n","dropout (Dropout)            (None, 1600)              0         \n","_________________________________________________________________\n","dense (Dense)                (None, 10)                16010     \n","=================================================================\n","Total params: 34,826\n","Trainable params: 34,826\n","Non-trainable params: 0\n","_________________________________________________________________\n"],"name":"stdout"}]},{"cell_type":"code","metadata":{"id":"WX0VTp5XJsZ3","executionInfo":{"status":"ok","timestamp":1602850831295,"user_tz":300,"elapsed":20130,"user":{"d
…
